simulator/ns-3.39/examples/AISIH/lstm/lstm_model.pth (torch, 80313 bytes, 5 tensors)

lstm.weight_ih_l0 f4 [256, 8]
000000 e9 b0 25 bd 65 fb b0 bd d2 d1 07 3e 77 13 18 3c
       -0.040451918 -0.086417 0.13263634 0.0092819845
000010 c8 94 a8 bd ad 15 01 bd 04 c5 d2 3b 27 3f 98 3d
       -0.08231503 -0.031514812 0.0064321775 0.0743392
000020 59 2f 3e 3d 73 e9 5b 3d 17 59 b3 bd 1c 25 a4 3a
       0.046431873 0.05368943 -0.08757227 0.0012523266
000030 82 d3 d5 bb 35 ef 18 3d c1 3d af bd f0 5c c2 3d
       -0.006525458 0.0373375 -0.085567005 0.09490383
000040 11 dd d4 3c e9 1f ac bd 2f 57 ce 3d d2 d6 0f 3d
       0.025984319 -0.08404524 0.10075223 0.035116978
000050 b5 d0 d1 bd 87 0c e5 3d 18 a5 58 3d a0 b6 d2 3d
       -0.10244886 0.1118403 0.05289182 0.10288739
000060 22 04 22 be 99 4f eb bd 9b d4 73 3d 98 79 59 3d
       -0.15821889 -0.114897914 0.05952893 0.053094476
000070 57 6b ca bd 88 0d 92 bd 75 76 a7 bd e6 10 fc bd
       -0.09883755 -0.07131487 -0.08176891 -0.123079106
000080 e3 9c d9 bb 76 f3 22 bd d3 b6 1e bd 1b f5 87 bc
       -0.006641017 -0.039782964 -0.038748574 -0.016596368
000090 8c 1a 0e 3e 3a 7b 71 3d c7 c1 18 be a4 95 14 bd
       0.13877314 0.05895541 -0.1491767 -0.03627552
0000a0 62 46 86 bc f3 2a aa bd bd 8a 85 bd 73 75 e6 bc
       -0.016390983 -0.08308973 -0.06520603 -0.028132176
0000b0 04 35 5e 3d 2d 74 d1 bd 03 bf e2 bc ec 7a d9 bd
       0.05424978 -0.10227237 -0.027678972 -0.106191486
0000c0 70 1a b6 3d 55 6f 70 39 80 64 d8 bd 4c 44 18 bd
       0.08891761 0.00022929658 -0.10566044 -0.037174508
0000d0 18 0a ba bd d9 42 bb bc 1a 19 b2 3d ed bd 89 3d
       -0.090839565 -0.022859024 0.08696194 0.067256786
0000e0 a7 52 a3 3d 1e a5 d5 3d 4f 7c 00 3e 59 da d5 3d
       0.07974749 0.10431884 0.1254742 0.10442037
0000f0 7a 99 86 bd 2e 29 51 bd e5 43 47 3d 30 b7 6d 3c
       -0.06572242 -0.051064663 0.048648734 0.014509007
000100 ad 75 e8 3d 43 9c a7 3d 2d cd c2 bd 6c a6 b9 bd
       0.1135057 0.081841014 -0.095117904 -0.090649456
000110 c2 70 e1 bd ee b0 98 bb 12 61 07 bd 98 16 0e 3e
       -0.11007835 -0.0046597635 -0.033051558 0.13875806
000120 fd bc b5 bd 96 10 01 3e d8 19 5c bd 01 7c 85 3d
       -0.08873937 0.12603983 -0.053735584 0.065177925
000130 d6 b2 86 bc 89 40 ec 3c c4 74 b2 bc 05 02 80 bd
       -0.016442697 0.028839367 -0.021784194 -0.06250385
000140 0b f6 cb bc 52 0b e8 bd d6 c0 b4 3d 36 80 75 bd
       -0.024897596 -0.11330284 0.08825843 -0.059936725
000150 a7 b5 13 3d 3f 32 ac 3d 94 97 78 3c b8 59 8b bd
       0.03606191 0.08408021 0.015172858 -0.06804222
000160 e2 3e 14 3e 13 7c 1d 3c 24 c7 ac bd e2 9b 03 bb
       0.14477113 0.009612101 -0.084364206 -0.0020081927
000170 c8 bb b3 3c 30 e1 f2 3b 93 db 9f 3d 2d 62 ff 3d
       0.021940127 0.0074120983 0.07805552 0.124698974
000180 a7 c3 13 bd 5f 68 38 bd a8 76 9c bc a7 b8 19 3d
       -0.03607526 -0.04502141 -0.019099548 0.037529614
000190 c0 ed b6 bd 85 3f 51 bd 21 78 8a 3d 89 6b 8c bd
       -0.08932066 -0.051085968 0.06761194 -0.06856448
0001a0 b0 9a dd 3d 10 4f 3d bd b6 bc cb bd 84 0e 18 bb
       0.1082052 -0.046217978 -0.09948103 -0.0023202011
0001b0 25 9f 2d bd 32 7b 15 3c 73 6f f3 3c c2 0d d4 bc
       -0.0423881 0.00912361 0.029716229 -0.025885466
0001c0 3b fb 03 bd 24 40 e2 3d 68 b9 e9 3d ad a0 02 be
       -0.032222014 0.1104739 0.114123166 -0.12756605
0001d0 d1 f2 44 bd f4 63 8d 3c e5 dd 4a bd 6a 87 9d bd
       -0.04808313 0.017259575 -0.04952802 -0.07691844
0001e0 22 a3 16 bd 64 3a 3e bd 0a a7 15 3d 2f a9 cc 3d
       -0.03677667 -0.046442404 0.036536254 0.09993207
0001f0 f4 7b 32 bc 3a 5d 69 3d 04 8d 72 3d c1 f9 d6 bc
       -0.010893811 0.056973673 0.059216514 -0.026242139
000200 89 89 39 bc 20 f6 ce bc 2a 1b 78 bc 38 26 2d 3d
       -0.011324295 -0.025263846 -0.015143195 0.042272776
000210 2f 1b 60 bd 06 3d 15 bd b8 35 9e bc 51 f6 89 3a
       -0.054713424 -0.03643515 -0.019312724 0.0010525679
000220 00 6b 0b bd 1a a3 36 3e 8c 76 a3 3d 54 d1 c1 bd
       -0.03403759 0.17835656 0.079815954 -0.09463754
000230 0b ad 7a bd 82 4a c0 bd 0a 99 6e 3c 54 39 18 be
       -0.061200183 -0.09389211 0.014562855 -0.14865619
000240 6d 9b b2 bc 03 6a 00 3d 8a 1d 4f bb 90 08 41 3d
       -0.021802628 0.0313511 -0.00316033 0.047127306
000250 37 33 cd bd a7 f5 fd 3d 77 29 f7 bd 1b 2f 8c 3d
       -0.10019534 0.1240037 -0.12068456 0.06844922
000260 08 b1 67 3d e4 cd 8e 3d 4b 68 d1 bd 6f d6 e4 bd
       0.056565315 0.06972864 -0.102249704 -0.111737125
000270 44 bf 3a 3d a3 bf 05 3b 79 1f 5a bd cb f8 b7 3c
       0.04559256 0.0020408414 -0.05325267 0.0224575
000280 9e 2a f8 bc 05 89 f7 3c e4 58 28 bd c1 37 78 3d
       -0.030293759 0.030216703 -0.041100398 0.060600046
000290 9d b3 8a 3d 82 0c 26 bd da dd 02 bd 83 33 16 be
       0.0677254 -0.040539272 -0.031949855 -0.14668088
0002a0 26 64 aa 3d 46 58 d8 3d 75 5f 57 3d 92 ff 0c be
       0.08319883 0.10563712 0.05258127 -0.13769367
0002b0 56 a3 bf bd 76 0e cf bd 4a 4b 00 bc fa a2 58 3d
       -0.09357326 -0.1011018 -0.00783045 0.0528898
0002c0 be 8b bf bd 19 98 ac bd ed 9b de bc f3 eb 99 3d
       -0.093528256 -0.08427448 -0.02717396 0.07515707
0002d0 4e 9f ab bd cb 6b 8a bd ed 45 d0 3d 78 dd 9b 3c
       -0.08379994 -0.06758841 0.10169587 0.019026503
0002e0 6a ae d2 3d 34 3f ac bc 45 36 5d bd 83 97 13 bc
       0.10287173 -0.021026231 -0.054006834 -0.009008291
0002f0 6e 9a aa 3d 2f 4a b4 3d d1 34 1b bd ab 61 bf 3d
       0.083302364 0.08803212 -0.037892167 0.093448006
000300 1a df 3e bd ff 14 d2 bd 06 10 a5 3d a2 42 85 bd
       -0.046599485 -0.10257911 0.08059697 -0.0650685
000310 2b 98 a8 bc f2 c4 59 bd 18 ec b8 3d 2e c8 c7 3d
       -0.020580372 -0.053166337 0.09029406 0.09754978
000320 94 d5 dc 3c d4 45 cd bd e1 2f ac 3c ea 5c ad 3d
       0.02695731 -0.10023084 0.021018924 0.084649876
000330 4b ba 09 3d bb a5 22 be 74 3b 14 3c 05 b4 66 3d
       0.03362493 -0.15883534 0.009047378 0.056324024
000340 cb 5d 7e 3c 60 33 d4 bc f7 03 11 be 91 b2 c2 bb
       0.015525292 -0.025903404 -0.14161669 -0.005941697
000350 dc 88 8f 3c 41 7a 03 be 55 60 0c bd ae e5 d1 bd
       0.017521314 -0.12839605 -0.034271557 -0.10248886
000360 cf 11 82 3d b2 86 30 bc fa 87 49 bd 0f ae b6 bd
       0.06351053 -0.010774301 -0.049201943 -0.08919918
000370 74 a0 4e bd 9e 1a 30 be 4e c1 91 3d a5 a7 5d bd
       -0.05044599 -0.17197654 0.07116948 -0.054114956
000380 6b e6 e7 3d 48 52 37 bc 7a 86 9f bc cd fc 29 bd
       0.113232456 -0.011189051 -0.019473303 -0.041500855
000390 2f 8a cf bd f0 a3 2d 3d 02 4a c6 bd ab 0a 0c 3e
       -0.10133778 0.04239267 -0.096820846 0.13675945
0003a0 2b 3f fd 3d d6 0d 07 3e 42 c3 df bd 04 9d b0 3d
       0.12365564 0.13188872 -0.10925914 0.08623698
0003b0 e6 96 64 bc 64 84 b9 3d 61 e9 76 bd 66 83 e4 3d
       -0.013951993 0.09058455 -0.06028116 0.11157875
0003c0 c3 24 2d 3e fd 28 cb 3d 81 d5 8a 3d c8 5e 81 3d
       0.16908555 0.09919927 0.06779004 0.06316906
0003d0 ea 92 a3 3c 7e 69 f3 3c 85 21 c7 bd 24 2c d1 bd
       0.019967515 0.029713389 -0.0972319 -0.10213497
0003e0 71 12 cb bc 25 53 9e ba b0 52 99 3d 96 12 c2 bd
       -0.024789067 -0.0012079222 0.074864745 -0.09476201
0003f0 15 06 08 be 28 5c 70 3c 19 bb 50 bd ee 37 1b bd
       -0.1328357 0.014670409 -0.05095968 -0.037895136

lstm.weight_hh_l0 f4 [256, 64]
000000 d5 45 73 bd a7 79 b5 3d 9e a0 23 3d ce 22 a0 bd
       -0.05939277 0.08861094 0.0399481 -0.078191385
000010 ff e7 05 3e e5 3b b0 3d 8a 95 06 bd 6e 85 70 bd
       0.1307678 0.08605174 -0.032857455 -0.058721
000020 3b 4c 0b 3e 9f f8 ba 3c 83 a6 c9 bc 3c 65 06 3d
       0.13603298 0.02282363 -0.024615532 0.03281139
000030 4f 55 01 be 05 b7 19 3d 81 88 19 3d 9f 09 9b bd
       -0.12630199 0.037528057 0.037483696 -0.075701945
000040 67 00 40 bd d8 16 e1 bd 18 0c b8 3d 88 0a a7 bb
       -0.046875384 -0.10990685 0.08986682 -0.005097691
000050 14 f2 01 bd 94 3b 29 3c 76 24 b7 bd ad 3d 01 3e
       -0.031725004 0.010329146 -0.08942501 0.12621184
000060 0b 1d d5 3d df 47 b7 3d a3 80 d9 bc f7 72 be bd
       0.1040593 0.08949255 -0.026550597 -0.092992716
000070 fb 03 0c 3d 22 ad 7d bd 14 35 57 3d 0d e6 18 bd
       0.034183484 -0.06193269 0.052540854 -0.03732877
000080 45 19 a3 bd 70 f7 4d bd c0 6d 03 be 77 35 13 bd
       -0.07963804 -0.050284803 -0.12834835 -0.03593966
000090 56 9a c9 bd 94 fc 8b bd 26 3b f4 3c 26 e2 59 bc
       -0.0984389 -0.06835285 0.02981336 -0.013298547
0000a0 47 bb 63 3c 26 2f 4d 3d fb c1 c3 3d 6b 63 67 3d
       0.013899631 0.050093792 0.09558483 0.056491297
0000b0 99 47 fe bd 50 27 15 3e cd 34 f6 bd 03 25 f6 3d
       -0.12416 0.14565778 -0.1202179 0.12018778
0000c0 27 fe 4f bd f0 49 d0 bc 47 d3 8f 3d b0 0e fd 3d
       -0.050779488 -0.025425881 0.0702272 0.12356317
0000d0 54 39 c1 bd ac 22 e6 3c e6 76 b8 bd 0f 6c b6 3d
       -0.094347626 0.028092705 -0.09007053 0.08907329
0000e0 95 b7 14 b9 78 c0 fc 3d cd cc 91 3c 8e d4 07 3e
       -0.0001418277 0.12341398 0.017797852 0.13264677
0000f0 17 df 9b bd 5b b3 f4 bc f3 5b 7a bd 08 dd b2 3d
       -0.076109104 -0.02987068 -0.061122846 0.087335646
000100 b8 9b 03 3e 8d 68 70 bd 1a 2b 74 bd 5a 39 95 3d
       0.1285237 -0.058693457 -0.059611417 0.072863296
000110 74 0e 59 bd 98 2a 0a 3e 87 0f c3 bd 6f f9 2c 3d
       -0.0529923 0.1349281 -0.09524446 0.042230066
000120 96 bb e4 bd 44 a5 5a 3c 25 32 3d 3d 29 13 ce 3d
       -0.11168592 0.013345066 0.0461904 0.10062248
000130 c6 97 9f 3d 33 46 5c bd 58 ea 99 bd 6b e9 d1 3d
       0.0779262 -0.053777885 -0.07515401 0.10249599
000140 ae 33 a5 3d 52 eb e9 bc 6a a3 ae bd 15 1c b3 bd
       0.08066498 -0.028554592 -0.085272625 -0.087455906
000150 91 03 b5 bd 8a 11 c3 3b 45 83 68 3d 77 be 94 bd
       -0.08838571 0.0059530186 0.056765813 -0.07262891
000160 71 3b 56 3d aa 68 ae 3d 69 84 b6 bd d0 32 3f bd
       0.05230278 0.08516057 -0.08911974 -0.046679318
000170 94 e1 b8 bd ef ff fd 3d a3 c1 61 bd f1 7d 9c bd
       -0.090274006 0.12402331 -0.055116307 -0.07641209
000180 a6 0e d6 3d 8c 1c 44 bd 38 40 b6 bd 21 54 2a 3d
       0.10452013 -0.047878787 -0.088989675 0.041584138
000190 a4 b1 69 3c 1d 34 eb 3d 78 6f b9 3d 6c 3c 4e bd
       0.014263544 0.11484549 0.09054464 -0.05035059
0001a0 f0 61 33 3d c0 c2 4e bd 6d 63 5f 3d 4f 64 9e 3c
       0.043794572 -0.050478697 0.05453818 0.01933494
0001b0 3e 00 6b 3d cd e4 bb bd d3 6a 44 3d 42 9a 68 3d
       0.057373278 -0.091745 0.047953438 0.056787737
0001c0 ae ef 37 bc ff 1b 05 bd 7d d1 2d 3c 72 e1 58 bd
       -0.011226578 -0.032497402 0.010609028 -0.052949376
0001d0 bc 30 0b be dc de 09 bc 4c f0 c9 3b b5 cb d5 bd
       -0.1359281 -0.00841495 0.006162679 -0.10439245
0001e0 a1 04 90 bd 6f bd d2 3d d3 2a d1 bd 08 0c 5f bd
       -0.07032133 0.10290038 -0.10213246 -0.054454833
0001f0 39 1f 03 bd 86 3f 18 be 1c 8e 3b 3d 58 77 82 bd
       -0.032012198 -0.14867982 0.045789823 -0.06370419
000200 72 01 c3 bd 29 02 c9 3d 84 7e 3b bc cb 52 94 bd
       -0.0952176 0.09814865 -0.011443738 -0.07242354
000210 30 5a 8b 3d f4 93 ba 3d 2e c7 2c 3e 8e cd 86 bd
       0.06804311 0.09110251 0.16872856 -0.06582175
000220 c9 0e b1 3d 9a 8f 01 3e ac 5c 37 3d 20 67 c9 bd
       0.08645398 0.12652436 0.044766113 -0.09834123
000230 e2 12 f5 3d 8b 3b a2 bb 02 88 85 3c fb a8 a2 3d
       0.11966492 -0.0049509457 0.016300205 0.07942387
000240 fd 63 83 3a 43 fb 98 3b 19 6f 2f 3d 64 fc dd 3d
       0.0010024306 0.0046686246 0.04283056 0.10839155
000250 14 4e 57 bc 4f 7b 75 3d 0b 3e d2 bd 96 fb ab 3c
       -0.013141174 0.05993205 -0.1026574 0.020993989
000260 ce 74 50 3c 05 ab c3 3d 8f 48 ce bd 88 15 bc bd
       0.012723161 0.09554104 -0.10072433 -0.09183794
000270 f9 4f c1 3d c5 66 a2 3c ea 4e a2 bd cf 7d cb bd
       0.09439082 0.019824395 -0.07925208 -0.099361055
000280 8d d0 d1 3b c3 cd 23 3d 3c c5 07 bd 60 15 ae 3d
       0.006403035 0.03999115 -0.03314708 0.08500171
000290 21 96 d7 3d ac e3 1c bd 97 8e 71 bd 65 6c da 3d
       0.10526682 -0.038303062 -0.058973875 0.10665206
0002a0 c3 38 89 bc 18 46 0a 3e b1 19 09 be 83 45 c9 bd
       -0.016750699 0.13503301 -0.13388707 -0.098277114
0002b0 e6 a9 e5 3c 20 74 f9 3d 3c af ed bc 79 0f d1 3b
       0.028035115 0.12180352 -0.029014222 0.0063800183
0002c0 2f 24 d4 3d 35 f1 94 bd 4f a0 69 3d 48 87 6e bc
       0.10358464 -0.07272569 0.057037648 -0.014558621
0002d0 38 20 ae bd 8d 82 03 be c3 6a ea 3d b6 d4 af bd
       -0.08502239 -0.1284277 0.114461444 -0.08585493
0002e0 8a a7 38 3c ea 76 f3 3d fa 2b 92 3d 37 ed da bb
       0.011270413 0.118879154 0.07137294 -0.0066811102
0002f0 98 a0 1e 3d 61 7a 0b be 18 15 58 3d ae 2e b8 3c
       0.038727373 -0.13620903 0.05275449 0.022483196
000300 c1 16 51 be 35 0a 03 be 8c c2 a1 b9 ed 53 00 be
       -0.20418836 -0.12796862 -0.00030853262 -0.12532015
000310 13 07 b2 3d 77 4f 9e 3d 22 89 bc 3b b0 a4 e5 3c
       0.086927556 0.077300005 0.005753652 0.02803263
000320 ee eb 9a 3d 71 8c 4d 3c 40 ed 81 bd 66 f6 f8 bc
       0.07564531 0.012545691 -0.0634408 -0.03039093
000330 22 1f ec bd 01 ce 13 be 78 ab ae bd 02 02 92 3d
       -0.115293756 -0.14434053 -0.08528799 0.07129289
000340 b7 a5 2d be 24 6c 50 3d e2 9c 8e 3c 94 a5 26 bd
       -0.16957746 0.05088438 0.017408792 -0.04068525
000350 72 56 52 bd 61 b4 a6 3d e0 55 05 3d df 18 3a ba
       -0.051351972 0.08139873 0.0325526 -0.0007099043
000360 3b 38 cf bd 99 c4 3f 3e ae 30 bb 3d 95 39 f3 bc
       -0.10118147 0.1872734 0.09140144 -0.029690543
000370 4b 4e 9f 3d d1 a5 9b 3d 0c fc 0c be 35 60 fb 3d
       0.07778605 0.07599986 -0.13768023 0.122742094
000380 ee 04 2d 3d d1 43 00 3d 04 6e 2b bd 42 ee 26 3b
       0.04224103 0.031314675 -0.041852966 0.0025471603
000390 19 6b 62 3d 19 d9 06 be 43 74 92 bd 35 8e 8d 3b
       0.055277918 -0.13168754 -0.071510814 0.004319931
0003a0 3b 8f 6e bd ac fb 18 bc 91 17 aa 3c 19 0d df 3c
       -0.058242064 -0.009337347 0.02076319 0.027227925
0003b0 94 ba 5c bd 30 95 c5 bd 69 a8 86 3d 4e bd d5 3d
       -0.053888872 -0.09647596 0.065750904 0.10436498
0003c0 04 b3 06 bd 5b c6 15 3d 29 28 34 3d 17 d3 9e 3d
       -0.032885566 0.03656612 0.043983612 0.07755106
0003d0 42 c2 c8 bc 7c f2 06 bd 98 5a b6 3d 91 f3 5e 3d
       -0.024506692 -0.032946095 0.08903998 0.0544315
0003e0 62 82 46 3d 2c d7 7f 3d c2 0a a6 3d 19 c0 17 3c
       0.048464186 0.062461063 0.08107521 0.009262108
0003f0 c3 be 2f be 1b 9a 77 bc 05 33 5c bd 53 e5 d6 3c
       -0.17162614 -0.015112425 -0.053759594 0.026232397

lstm.bias_ih_l0 f4 [256]
000000 1c dc d4 3d e3 3e ab 3d 01 6d a1 bb b5 fe 84 bd
       0.10393545 0.08361604 -0.0049263244 -0.06493894
000010 e3 6f 85 3d 64 6c bb 3d 86 25 b6 3d 61 06 20 3d
       0.06515481 0.09151533 0.08893876 0.039068583
000020 4c 73 ed bd f5 6b 68 3d 97 ce 69 bd c8 c1 ac 3d
       -0.11594257 0.05674358 -0.057081785 0.08435398
000030 0c 39 08 be 84 1a 7a 3c 9a ad b7 bd fc 05 fc 3c
       -0.13303012 0.015265111 -0.08968659 0.030764572
000040 ab ca 13 3d 3d 75 18 3d 6e c2 f5 3d c1 3b aa 3d
       0.03608195 0.037221182 0.11999975 0.083121784
000050 54 de 03 3e 1d 91 a8 3d a9 59 b7 3d 3d b1 42 bd
       0.1287778 0.08230803 0.08952648 -0.04753231
000060 f9 1e 4c bd 0d b6 c0 bd 26 94 06 3c 76 01 a2 bc
       -0.049834225 -0.094097234 0.008214032 -0.019776087
000070 47 a8 87 3d 2e 84 c7 bc da 98 01 bd f7 83 ef bd
       0.06623893 -0.02435502 -0.03163991 -0.11695092
000080 5e 04 02 3e 74 09 b2 bd d8 90 59 3d 68 73 8d bd
       0.12696978 -0.08693209 0.05311665 -0.069067776
000090 d4 f7 f8 3d 42 ec d7 3d 1f 16 13 bd 23 a5 99 3d
       0.121566445 0.105431095 -0.03590977 0.075022005
0000a0 64 1c c1 3d e8 76 aa 3d a6 6c ca bd 52 0f 60 bd
       0.09429243 0.08323461 -0.09884004 -0.05470211
0000b0 cb ce 93 bd e6 43 51 bd 46 93 9a bd 94 56 5e 3d
       -0.07217177 -0.051090144 -0.075476214 0.054281786
0000c0 84 c7 ea 3d 0c b9 ce bd d2 60 4f 3d 71 9f d3 3d
       0.11463836 -0.10093889 0.050629444 0.103331454
0000d0 c1 bb a1 3d ef 5b 9f 3d 2c f3 ed bc 3a 89 01 be
       0.07897139 0.07781207 -0.029046617 -0.12650004
0000e0 64 33 84 bd c6 17 ba bd 43 d9 b1 bd c3 2c 13 bc
       -0.064551145 -0.09086566 -0.086840175 -0.00898284
0000f0 fb f7 d5 bd 1e 01 90 3c 81 66 c4 3c 68 f1 3f bc
       -0.10447689 0.017578658 0.023974659 -0.011715271
000100 ef e7 97 3d 47 5a 06 3a ba 5e 9f 3d 06 61 96 bd
       0.07417285 0.00051251467 0.077817395 -0.073427245
000110 83 5c 9b bd 96 d4 50 3d 17 92 a1 3d 56 9d 07 3e
       -0.075860046 0.050983988 0.078891926 0.13243613
000120 a3 fc ce 3d 81 29 47 bc 21 46 7e 3b bf 25 a3 bd
       0.101067804 -0.012155891 0.0038799124 -0.07966184
000130 81 c0 fe 3c 3f 06 b6 3c 30 69 89 3b c8 89 1a 3c
       0.031097652 0.022219775 0.0041934475 0.009432264
000140 5e 7b 06 be 56 6b e7 3c 77 4e b8 bc 5c 77 b6 bd
       -0.13132998 0.028249424 -0.022498352 -0.08909485
000150 02 9d 7b bd fa df ea bd 51 b2 87 bd 00 0f 06 3e
       -0.06142903 -0.114685014 -0.06625808 0.1309166
000160 0d 67 a3 bd 50 88 c9 3d 72 90 8f 3d f9 9d a6 3b
       -0.0797864 0.09840453 0.07009973 0.00508475
000170 ae e8 26 bc da ee e9 3d 66 9d 88 3d d5 91 15 3e
       -0.010187311 0.114225104 0.06670646 0.14606412
000180 f8 f5 37 bc ee 1f e8 3d 09 be 71 3a 3d 66 5b 3c
       -0.011228077 0.11334215 0.0009221738 0.013391075
000190 31 56 0b 3d ef 30 ce 3d d4 d6 f1 3d 3e bd e5 bc
       0.034017745 0.10067927 0.11808553 -0.02804434
0001a0 09 39 bf 3d a6 73 83 bd c0 dd 80 bc 55 f2 9f bd
       0.093370505 -0.064185426 -0.015730739 -0.07809893
0001b0 fe 49 a3 bd d0 0c 75 3d f9 a8 0d 3d 5f 76 55 bd
       -0.07973097 0.059826672 0.034584973 -0.05211484
0001c0 8a 6a 68 bd df 2e ce 3d 8c 8c 56 bb 84 9e 0d 3d
       -0.05674223 0.10067534 -0.003273758 0.034575
0001d0 da b8 c1 bc 82 39 00 be b1 b4 2f 3d e2 db 76 bc
       -0.023647714 -0.12521937 0.04289693 -0.015067073
0001e0 45 a5 8e bd 96 59 e4 3c 00 34 78 3d cb 32 70 bd
       -0.069651164 0.02787475 0.060596466 -0.05864219
0001f0 bd 53 c7 3d 4d 86 54 bd 63 63 82 bc c3 a3 0b 3d
       0.09732769 -0.05188589 -0.015916532 0.034091722
000200 eb c3 51 bd 96 3f c6 3d bc 85 ac 3d bb 10 cb 3d
       -0.051212233 0.09680097 0.08423945 0.099153005
000210 a5 4e aa bd a3 02 cd bb 49 b1 93 bd 77 52 a8 3d
       -0.083157815 -0.006256418 -0.07211549 0.08218854
000220 98 6c 82 3c 2d 24 d2 bd 06 99 a0 bd 8f c7 4e 3d
       0.015920922 -0.10260806 -0.07841687 0.050483283
000230 19 b4 67 bd f4 ec 2d 3d 4a f9 af ba ae 1d bc 3d
       -0.05656824 0.042462304 -0.0013425734 0.091853485
000240 4b 4f ab 3d 41 e7 83 bd 0a 9f d7 bd 3c 89 28 3c
       0.08364733 -0.064405926 -0.10528381 0.0102866255
000250 ee ee 96 bd fd 0f 01 bd 40 d7 e1 3d 6c 49 8d 3d
       -0.07369791 -0.03150939 0.11027384 0.0689877
000260 2f ec 93 3d 5e 5f 2a 3d 75 ad b6 3d 84 39 af bd
       0.07222783 0.041594855 0.08919803 -0.08555892
000270 94 60 f0 3b f5 ff be 3d c5 0e 05 3d da cd bd 3b
       0.0073357318 0.09326164 0.03248479 0.0057923617
000280 84 b4 53 bd b8 50 bb 3d bb c7 dc 3b f1 28 7c bd
       -0.051685825 0.09146255 0.006737677 -0.061562482
000290 e8 a8 4d bd ee 9c 82 bd 86 22 05 bd 98 79 85 bc
       -0.05020991 -0.06377588 -0.032503627 -0.016293332
0002a0 7a 39 94 3d ad e2 9f bd d2 7b 7a bd aa cf 42 3c
       0.07237525 -0.07806907 -0.06115324 0.011890331
0002b0 37 6c 80 bd 0d 90 8a bc ad 85 01 3d 04 ee 95 3d
       -0.0627064 -0.016914392 0.031621624 0.073207885
0002c0 2e 42 d9 3d 9d ec 47 3d f8 fa 88 3d e9 d7 f2 bd
       0.10608326 0.048809636 0.066884935 -0.11857588
0002d0 7c bf 31 3d f3 09 83 bc c5 8f e1 bd ca 3d 11 bd
       0.043395504 -0.015995955 -0.1101375 -0.035459317
0002e0 4d 40 cd 3d d7 3e d0 bd 21 6c 00 3c 78 ba 8a bd
       0.1002203 -0.10168236 0.00783828 -0.06773847
0002f0 dc b5 bb 3c 72 c9 9b 3d ea 91 b3 3d 9f 8b 17 bd
       0.022913866 0.07606782 0.08768065 -0.036998387
000300 6c 16 97 bd 43 da 8f bc 3e 7f ff bc 61 3f 9c 3d
       -0.073773235 -0.01756013 -0.031188603 0.07629276
000310 97 c2 5a bd be 77 d6 3c a3 86 e5 bc 5b ba 3b 3d
       -0.05340823 0.026180144 -0.028018301 0.04583202
000320 f5 82 03 bc 7c 12 ba bd f1 30 ba 3d 33 18 8c bc
       -0.008026828 -0.09085557 0.09091366 -0.017101383
000330 99 7d 65 bd 63 60 98 3d 47 4d cc 3b 98 cb f1 3d
       -0.056027982 0.07440259 0.006234798 0.118064106
000340 00 90 04 be f5 ee ac bd d9 ea 84 bc 18 c5 99 3b
       -0.12945557 -0.08444015 -0.016225265 0.004692685
000350 17 68 a1 bd 7e f7 09 be e7 e0 f2 3c 6b ce da bd
       -0.07881182 -0.13473317 0.029648257 -0.10683902
000360 02 d2 95 bd 98 97 7e 3c 33 5f d1 bc 33 1f 94 ba
       -0.073154464 0.015539072 -0.02555809 -0.0011300802
000370 8a 1d 38 bc 96 f6 e0 bd e5 68 0c be b7 8e b4 bd
       -0.011237511 -0.109845325 -0.13711889 -0.08816283
000380 a2 5b ab bd bc 20 80 3d 63 51 d5 3d bb a4 a4 3d
       -0.08367087 0.062562436 0.10415914 0.08039232
000390 88 1a dd 3d 9a d6 c4 3d 83 59 59 bd 5e 73 88 3d
       0.10796076 0.096112445 -0.05306388 0.066626295
0003a0 17 90 ba bc f9 4b da bd 70 62 f5 3c 67 be 5c 3d
       -0.022773786 -0.10659022 0.029954165 0.05389252
0003b0 ee a7 fd bd 8a 41 dc 3c ce 5c e4 bd c6 97 9f bd
       -0.12385546 0.02688672 -0.111505136 -0.0779262
0003c0 c1 5d 77 bd 85 a5 1b bc 60 3b b4 3c b6 37 a1 3d
       -0.060392145 -0.009499912 0.022000968 0.07871954
0003d0 9f 54 d4 3d 70 ae 8c 3d 8a 6d d1 3d a9 d7 a4 bb
       0.10367703 0.06869209 0.10225971 -0.0050305915
0003e0 33 29 af 3d ba 78 17 bd 23 1d 27 3d ba 8d ae 3d
       0.0855278 -0.03698037 0.04079927 0.08523126
0003f0 65 aa ee 3d fe e6 b8 3d a9 93 b7 3d 93 98 77 3d
       0.11653594 0.09028433 0.08963711 0.06044824

lstm.bias_hh_l0 f4 [256]
000000 0e 1d e5 bd 15 4b d1 3c 7b 09 ef bd d1 00 76 bc
       -0.11187182 0.025548497 -0.1167173 -0.015014843
000010 35 64 01 3e 88 47 99 3d c0 1a e7 3d 7b 91 62 3d
       0.12635882 0.07484347 0.11284399 0.055314522
000020 34 ee 87 3c 0a 55 c2 bd 01 08 a8 bd c2 56 80 bd
       0.016593076 -0.09488876 -0.082046516 -0.06266548
000030 da 9e 54 bc c1 3f bc bd 21 b4 2e bd 0d 73 02 bc
       -0.012977326 -0.091918476 -0.042652253 -0.007962001
000040 98 4c 01 3d 7c 2e 5c ba c4 5b ba 3d 1b c0 8e 3d
       0.031567186 -0.00083992607 0.09099534 0.06970235
000050 88 d9 b3 bd e7 4f 26 bd 33 4f d8 bd 46 70 86 bd
       -0.08781725 -0.040603545 -0.10561981 -0.06564383
000060 6c 63 f3 3d b7 3f b9 3d 9b 0d 9f 3a 4c ac 00 3d
       0.118841976 0.09045356 0.0012134792 0.031414315
000070 3c af 77 bd 1f 50 9e bc 93 3d b5 bc 55 91 3f 3d
       -0.06046985 -0.019325314 -0.022124087 0.04676946
000080 77 87 1f bb f6 ec b8 bd 08 30 63 3d 2d d7 c8 3d
       -0.0024342218 -0.09029572 0.055465728 0.098066665
000090 96 15 88 bd 0d 18 43 3d ab c5 c3 3d 65 20 b5 3d
       -0.06644742 0.04763036 0.095591865 0.088440694
0000a0 cd fc 2e 3d 02 6e e9 bd 1e 15 26 3d b3 96 02 be
       0.04272156 -0.113979355 0.040547483 -0.127528
0000b0 4f 6b cb 3d 03 d4 44 3c b6 9b a4 bb 9b b5 1f 3d
       0.09932577 0.012013438 -0.005023445 0.03899155
0000c0 72 a0 99 3d 01 23 2b bd fa dc 2a bd 13 59 94 3d
       0.07501306 -0.04178143 -0.041714646 0.07243552
0000d0 00 bd 43 bd b1 b0 c7 3b aa e9 89 bc 67 f4 a3 3d
       -0.047787666 0.0060940613 -0.016835053 0.080056004
0000e0 2f 1b ab bb 9c a7 ad 3d 01 96 ae bd 18 af a0 bd
       -0.0052217464 0.084792346 -0.08524705 -0.078458965
0000f0 1c 11 6d 3b 75 fd 0a bb 4c 5f 02 3e ff cd b9 3d
       0.0036173528 -0.00212082 0.12731665 0.09072494
000100 23 64 39 bd e9 d1 84 3d 76 00 76 bd f6 1c af 3d
       -0.045261513 0.0648535 -0.060059033 0.08550446
000110 7c 5b b5 bd 66 b7 1f bd e1 cc b5 bd 0f 0f 80 3d
       -0.0885534 -0.03899326 -0.08876968 0.06252872
000120 bb 0f 8a bd 85 89 ab 3d e6 bb 61 3d 51 36 c2 3d
       -0.067412816 0.08375839 0.055110835 0.09483016
000130 27 4f f7 bc 50 39 01 3e 1f aa 0b 3d 47 4b 6b 3c
       -0.03018911 0.12619519 0.034097787 0.014361209
000140 ac b0 2c bd 53 e2 48 bd d9 af a4 bc fa 91 24 bd
       -0.042160675 -0.049043965 -0.020103382 -0.040178277
000150 c9 82 3d bb e7 a4 50 bd 3f 25 78 3a de 8d ca bd
       -0.0028917065 -0.050938513 0.00094659993 -0.0989034
000160 d1 58 95 bd cf 77 14 be 0f 6c 70 bd f1 1f c0 bd
       -0.07292331 -0.14498828 -0.058696803 -0.09381092
000170 92 61 5c 3d 98 8d 91 bc 52 eb dd bd f0 39 06 bd
       0.053803988 -0.017767712 -0.108358994 -0.032770097
000180 ed da 2a bd ae 7c be bd ce ee dd 3d 38 90 69 3d
       -0.04171269 -0.093011245 0.10836564 0.057022303
000190 10 6b 4d bd 01 b4 06 be 27 f4 6d 3c 50 5b 60 bd
       -0.05015093 -0.13154604 0.0145235425 -0.054774582
0001a0 6f 8e ae 3d 00 58 bb bd 67 a4 ff 3d cf 25 f0 bd
       0.08523261 -0.09147644 0.12482529 -0.117259614
0001b0 1d c0 0b 3d 0e b1 a8 3d a0 77 59 3d b6 f2 af 3d
       0.03411876 0.082368955 0.0530926 0.08591215
0001c0 92 13 a2 3d af 44 d3 3d 72 ef 9f bc 74 00 e2 3d
       0.07913889 0.10315835 -0.019523356 0.11035243
0001d0 e9 d7 9a bd 47 1c 8f 3d a3 b2 79 bd c3 e7 9d bd
       -0.07560713 0.06987815 -0.060961377 -0.07710221
0001e0 bc a4 be bd ee c2 84 3d 8f 9d d3 bd cf c2 66 3c
       -0.09308764 0.064824924 -0.10332786 0.014084532
0001f0 31 f0 1d bd 10 5c 14 be c0 ee b0 3d ce 00 29 bd
       -0.038559143 -0.14488244 0.08639288 -0.041260533
000200 45 59 ee 3d 9d 72 b4 bb ea 4f bf 3c 19 92 e1 bd
       0.116381206 -0.005506827 0.023353536 -0.11014194
000210 0a b5 39 3d ed 07 99 3d 1a bd 09 3e 91 c7 dc 3d
       0.045338668 0.07472215 0.13451043 0.10780252
000220 b6 9d c9 bd 2f 87 e0 bd 4a 04 8d 3b f3 8c dc 3d
       -0.09844534 -0.10963284 0.00430349 0.107690714
000230 c1 e1 15 3d 7b 04 f9 bd a1 01 cc bd 38 39 8c 3d
       0.03659225 -0.12159058 -0.09961248 0.06846851
000240 b7 a9 5a 3d ec 59 81 3d 6e f4 d8 3d 2e c8 5e 3c
       0.05338451 0.06315979 0.10593496 0.013597531
000250 1c ca 82 bd 8f ac ca 3d d9 68 81 3b 13 15 49 3d
       -0.063862056 0.09896194 0.0039492664 0.049092364
000260 f9 d2 de 3c 66 6b 26 bd 13 68 bd 3d 63 9b a2 3c
       0.027200209 -0.040629767 0.09248366 0.019849485
000270 75 2b f8 3b 67 37 4c bd 02 80 83 39 a9 fd e6 bb
       0.00757354 -0.049857523 0.0002508164 -0.0070492816
000280 13 fb be 3d af dc 7a 3d 81 e1 b7 bc cb 1b 06 3e
       0.09325232 0.061245617 -0.022446396 0.1309654
000290 b0 76 d0 bd 1a cc 75 3d 95 bc 0c bd b0 39 fc bd
       -0.10178888 0.0600091 -0.034359533 -0.123156905
0002a0 ed b1 06 3e 71 b9 94 bd 74 ef e1 3c b5 a9 87 3d
       0.13153811 -0.07261933 0.02758 0.06624166
0002b0 eb 24 c6 3d 4d 48 86 bc 10 05 91 bd 36 5f 38 bd
       0.0967501 -0.016391898 -0.07081044 -0.045012675
0002c0 4a a4 c5 bd 7d 75 b8 3c 04 71 c8 bd 3b 19 f0 bd
       -0.09650476 0.02251696 -0.09787181 -0.11723562
0002d0 2b 4b 66 3c 31 c1 0a 3d 4d a0 d2 bd 93 f0 b8 3d
       0.014056007 0.033875648 -0.10284481 0.09030261
0002e0 81 ac 82 bd a5 39 e9 3c 89 f0 c8 bc d8 ba 55 bd
       -0.06380559 0.02846987 -0.024528759 -0.05218014
0002f0 fc 7c 6c bc 06 1e 9d bb d8 84 86 3d 60 b1 72 3d
       -0.0144340955 -0.004794839 0.06568307 0.05925119
000300 67 d5 df 3b f7 6e 96 3d 30 a3 f1 bd 55 bb 88 3c
       0.0068308595 0.073453836 -0.11798704 0.01669089
000310 5c 09 05 3e b9 4f f7 ba f8 e3 04 3c 63 ef d1 3d
       0.12991852 -0.0018868364 0.008110993 0.102507375
000320 37 9c db bc f2 71 aa bc 79 af d7 3d 8e 9f 8d 3c
       -0.026807887 -0.020806286 0.10531516 0.017287996
000330 69 77 a4 bd 4b b6 36 3d d0 a1 d6 bc 60 9b b5 3d
       -0.08030588 0.044607442 -0.026200205 0.08867526
000340 b6 3d b7 3d 0e 3d 37 3d 0e b1 d6 3d bc 3c 45 bb
       0.08947317 0.04473596 0.10482989 -0.0030096015
000350 bc 15 79 3d 25 ec b8 3a 7a 8c 0a be 83 9a bd bd
       0.060811743 0.0014108462 -0.1353015 -0.092579864
000360 5e ab 4c 3d 93 79 87 3c 93 3f 72 bb 81 58 9b bd
       0.049968116 0.016537463 -0.0036964163 -0.0758524
000370 f4 bb d7 bd dc a4 ac 3c c7 02 3b bc 9c 1f 8d bc
       -0.10533896 0.021074705 -0.011414236 -0.017226987
000380 dc 86 e4 bd dd 92 dd 3d 75 5d 48 3d a7 c9 a9 bd
       -0.11158535 0.108190276 0.048917253 -0.08290415
000390 12 f2 4a 3d 9d 21 21 bd 43 10 e6 3d 1e 34 db 3d
       0.049547262 -0.039338697 0.112335704 0.107033
0003a0 5b 2e e4 3d a1 3e df 3d 27 fb 17 3d d2 01 a0 bd
       0.11141654 0.109006174 0.037104752 -0.07812847
0003b0 c6 a0 ab bc 33 b6 29 bd c9 75 03 be e4 d4 03 be
       -0.020950686 -0.041433524 -0.128379 -0.1287418
0003c0 f0 15 7f 3d 87 af c2 3d 66 a7 fe 3c c0 95 25 bd
       0.06227678 0.095061354 0.031085681 -0.040426016
0003d0 63 60 c6 3d df 4b f9 3c 02 10 86 bb 15 77 47 3d
       0.09686353 0.030431686 -0.0040912637 0.04869755
0003e0 4b 05 ac bc 41 9e 75 3d 78 24 aa 3b ed 57 ea 3c
       -0.020998618 0.059965376 0.0051923357 0.02860638
0003f0 d9 af d6 bd 1c b3 c5 bd 49 73 ef bd 9d 71 47 bd
       -0.10482759 -0.09653303 -0.11691911 -0.048692334

fc.weight f4 [1, 64]
000000 63 b3 c1 3d a9 ae b9 bc 82 57 42 bd a9 1b 79 bd
       0.094580434 -0.022666292 -0.047446735 -0.060817394
000010 e1 cf 41 bd 81 6d cf 3d b7 f7 fd 3d 60 aa 81 3d
       -0.04731739 0.10128308 0.124007635 0.063313246
000020 c0 03 91 3d ab d1 9a bd 4e 43 64 bd 4d 1b c4 bd
       0.070807934 -0.07559522 -0.05572825 -0.0957552
000030 a3 4c ef 3c 7f a0 87 bd 63 21 8f 3d 8a cf 23 3d
       0.029211348 -0.06622409 0.0698879 0.039992847
000040 51 72 0d bd 13 41 be bd 69 4c 92 3c 52 f4 61 bb
       -0.03453285 -0.09289756 0.0178587 -0.0034477902
000050 c6 90 b9 bd 08 4e b7 bd 45 37 b2 bd 93 74 90 3c
       -0.090608165 -0.0895043 -0.08701948 0.017633712
000060 ba fb de 3d 1c 76 e0 3d 6c 97 d4 3d 7e db c6 3d
       0.10887857 0.109600276 0.10380444 0.097098336
000070 85 03 59 3d 90 b2 fc 3c a0 12 85 bd 32 fd cb 3d
       0.052981872 0.030846864 -0.06497693 0.099604025
000080 40 60 ba 3c c9 b6 cb 3d 1f 6f 28 bd e4 04 e4 3d
       0.022750974 0.09946973 -0.0411216 0.11133745
000090 2f d3 b3 bc 8c 96 27 3d 7b 4d 37 bd ff e3 cb bc
       -0.021951286 0.040915057 -0.044751626 -0.02488899
0000a0 a6 c9 da 3d 1b db 9e b8 3b 8d 83 bd 69 17 83 b8
       0.10682993 -7.574839e-05 -0.06423422 -6.250927e-05
0000b0 02 a2 ba bc 2f ed d2 bd 47 8a 47 3d d8 28 e1 bc
       -0.02278233 -0.102991454 0.048715856 -0.027485296
0000c0 e0 80 7c 3c f8 12 71 3b 2b 4c 02 be 46 ee 11 bd
       0.015411586 0.0036784988 -0.12724368 -0.035627626
0000d0 74 1a 74 3d c8 58 da bd f1 59 ac 3d 32 d7 65 bd
       0.05959554 -0.10661465 0.084155925 -0.05611343
0000e0 a3 86 5f bd 63 7c 94 bd be 8e 93 3d 79 e4 07 3d
       -0.05457176 -0.072502874 0.0720496 0.033176873
0000f0 67 1f e2 3b 66 e9 92 bd 35 b2 4e 3d 22 92 62 bd
       0.006900716 -0.071734235 0.05046292 -0.055315144
